L15/weights/checkpoint.pth (torch, 1905 bytes, 3 tensors)

fc1.weight f4 [16, 2]
0	0xbfa376b7	-1.2770604
1	0x3e00e073	0.1258562
2	0x3f3f6e01	0.7477723
3	0x3fd5b687	1.6696328
4	0x3e4efc35	0.20213397
5	0xc1038246	-8.219305
6	0x3f211e1a	0.62936556
7	0x40a6ea06	5.2160673
8	0xc04751a3	-3.1143577
9	0xc00fe470	-2.2483177
10	0x3fb7ced9	1.436
11	0x4017d66f	2.372463
12	0x40260fbd	2.5947106
13	0x3fc5b933	1.5447143
14	0xbfa6f180	-1.304245
15	0x3f6d0f00	0.92601013
16	0x3ff45b47	1.9090356
17	0xc0b474fa	-5.6392794
18	0xc001c107	-2.0274065
19	0x3f5cb4c9	0.86213356
20	0xc0170cdf	-2.3601606
21	0x3eac19bb	0.3361338
22	0x3eefb9f6	0.46821564
23	0xc0079882	-2.1186833
24	0xc09be583	-4.8717666
25	0xbe440c5f	-0.19145344
26	0x40c21d5c	6.066084
27	0x3f81ba94	1.0135064
28	0x40aa85a3	5.328813
29	0xc02532fc	-2.5812368
30	0x3ff4c499	1.9122497
31	0xc06f37ff	-3.7377927

fc1.bias f4 [16]
0	0xbfc589ba	-1.5432656
1	0xc04d8d9a	-3.2117677
2	0x3f17c8e7	0.5929093
3	0xc0aba41f	-5.3637843
4	0xbfa45a0c	-1.283998
5	0xbf2d84e6	-0.6778091
6	0xc0446681	-3.0687563
7	0xc024d4e4	-2.5754938
8	0xbf2c4433	-0.67291564
9	0xbfc59ed7	-1.5439099
10	0xbf90aa95	-1.1302058
11	0xc0b45788	-5.635685
12	0xbfbe3bc4	-1.4861989
13	0x3f193861	0.5985165
14	0xbfaf479a	-1.3693726
15	0xbf9034c7	-1.1266106

fc2.weight f4 [1, 16]
0	0x3f81ebba	1.0150063
1	0xc04ce3bd	-3.2014
2	0xc093a2cd	-4.613623
3	0xc047eda0	-3.1238785
4	0xbff1c670	-1.8888683
5	0x3fc4a9d7	1.5364331
6	0xc0a65a29	-5.198506
7	0x403df569	2.9681036
8	0xc0a88b2d	-5.266989
9	0x3fe1d9d7	1.7644604
10	0x3ed6dcdf	0.41965386
11	0x4003de4c	2.060443
12	0x3fa55f97	1.2919797
13	0x4093df10	4.6209793
14	0xbff7376e	-1.9313791
15	0x407d2739	3.955519
